…
"https://localhost:8080/","height":539},"outputId":"bb4e5ad2-b0c1-469f-f790-a4194983bf5a","executionInfo":{"status":"ok","timestamp":1563789228394,"user_tz":-330,"elapsed":11759,"user":{"displayName":"Suryansh Sharma","photoUrl":"","userId":"03232072030227591914"}}},"source":["model.summary()"],"execution_count":11,"outputs":[{"output_type":"stream","text":["_________________________________________________________________\n","Layer (type)                 Output Shape              Param #   \n","=================================================================\n","batch_normalization_1 (Batch (None, 32, 32, 3)         12        \n","_________________________________________________________________\n","conv2d_1 (Conv2D)            (None, 30, 30, 32)        896       \n","_________________________________________________________________\n","max_pooling2d_1 (MaxPooling2 (None, 15, 15, 32)        0         \n","_________________________________________________________________\n","dropout_1 (Dropout)          (None, 15, 15, 32)        0         \n","_________________________________________________________________\n","conv2d_2 (Conv2D)            (None, 13, 13, 64)        18496     \n","_________________________________________________________________\n","max_pooling2d_2 (MaxPooling2 (None, 6, 6, 64)          0         \n","_________________________________________________________________\n","dropout_2 (Dropout)          (None, 6, 6, 64)          0         \n","_________________________________________________________________\n","flatten_1 (Flatten)          (None, 2304)              0         \n","_________________________________________________________________\n","dense_1 (Dense)              (None, 128)               295040    \n","_________________________________________________________________\n","dropout_3 (Dropout)          (None, 128)               0         \n","_________________________________________________________________\n","dense_2 (Dense)              (None, 5)                 645       \n","=================================================================\n","Total params: 315,089\n","Trainable params: 315,083\n","Non-trainable params: 6\n","_________________________________________________________________\n"],"name":"stdout"}]},{"cell_type":"markdown","metadata":{"id":"8ByO-o9JFJCq","colab_type":"text"},"source":["### Compile and fit the model"]},{"cell_type":"code","met
…
